…
>])</span><br></pre></td></tr></table></figure><p>The <code>model.summary()</code> method call prints a summary of the NN </p><figure class="highlight python"><table><tr><td class="gutter"><pre><span class="line">1</span><br></pre></td><td class="code"><pre><span class="line">model.summary()</span><br></pre></td></tr></table></figure><pre><code>Model: &quot;sequential&quot;_________________________________________________________________Layer (type)                 Output Shape              Param #   =================================================================conv2d (Conv2D)              (None, 148, 148, 16)      448       _________________________________________________________________max_pooling2d (MaxPooling2D) (None, 74, 74, 16)        0         _________________________________________________________________conv2d_1 (Conv2D)            (None, 72, 72, 32)        4640      _________________________________________________________________max_pooling2d_1 (MaxPooling2 (None, 36, 36, 32)        0         _________________________________________________________________conv2d_2 (Conv2D)            (None, 34, 34, 64)        18496     _________________________________________________________________max_pooling2d_2 (MaxPooling2 (None, 17, 17, 64)        0         _________________________________________________________________flatten (Flatten)            (None, 18496)             0         _________________________________________________________________dense (Dense)                (None, 512)               9470464   _________________________________________________________________dense_1 (Dense)              (None, 1)                 513       =================================================================Total params: 9,494,561Trainable params: 9,494,561Non-trainable params: 0_________________________________________________________________</code></pre><p>The “output shape” column shows how the size of your feature map evolves in each successive layer. The convolution layers reduce the size of the feature maps by a bit due to 
…
