…
">17</span><br><span class="line">18</span><br><span class="line">19</span><br><span class="line">20</span><br><span class="line">21</span><br><span class="line">22</span><br></pre></td><td class="code"><pre><span class="line">Model: &quot;sequential&quot;</span><br><span class="line">_________________________________________________________________</span><br><span class="line">Layer (type)                 Output Shape              Param #   </span><br><span class="line">=================================================================</span><br><span class="line">lambda (Lambda)              (None, 28, 28, 1)         0         </span><br><span class="line">_________________________________________________________________</span><br><span class="line">conv2d (Conv2D)              (None, 28, 28, 8)         80        </span><br><span class="line">_________________________________________________________________</span><br><span class="line">max_pooling2d (MaxPooling2D) (None, 14, 14, 8)         0         </span><br><span class="line">_________________________________________________________________</span><br><span class="line">conv2d_1 (Conv2D)            (None, 14, 14, 16)        1168      </span><br><span class="line">_________________________________________________________________</span><br><span class="line">max_pooling2d_1 (MaxPooling2 (None, 7, 7, 16)          0         </span><br><span class="line">_________________________________________________________________</span><br><span class="line">conv2d_2 (Conv2D)            (None, 7, 7, 32)          4640      </span><br><span class="line">_________________________________________________________________</span><br><span class="line">flatten (Flatten)            (None, 1568)              0         </span><br><span class="line">_________________________________________________________________</span><br><span class="line">dense (Dense)                (None, 128)               200832    </span><br><span class="line">_________________________________________________________________</span><br><span class="line">dense_1 (Dense)              (None, 10)                1290      </span><br><span class="line">=================================================================</span><br></pre></td></tr></table></figure><p>Notice that we are using a <code>tf.keras.layers.Lambda</code> layer at the beginning of our model. <code>Lambda</code> layers are used to wrap arbitrary expressions as a <code>Layer</code> object:</p><figure class="highlight python"><table><tr><td cla
…
