…
)</span><br><span class="line">        x = self.fc2(x)</span><br><span class="line">        </span><br><span class="line">        <span class="keyword">return</span> x</span><br></pre></td></tr></table></figure><figure class="highlight python"><table><tr><td class="gutter"><pre><span class="line">1</span><br><span class="line">2</span><br></pre></td><td class="code"><pre><span class="line">model = MyCNNClassifier(<span class="number">1</span>, <span class="number">10</span>)</span><br><span class="line">print(model)</span><br></pre></td></tr></table></figure><pre><code>MyCNNClassifier(  (conv1): Conv2d(1, 32, kernel_size=(3, 3), stride=(1, 1), padding=(1, 1))  (bn1): BatchNorm2d(32, eps=1e-05, momentum=0.1, affine=True, track_running_stats=True)  (conv2): Conv2d(32, 64, kernel_size=(3, 3), stride=(1, 1), padding=(1, 1))  (bn2): BatchNorm2d(32, eps=1e-05, momentum=0.1, affine=True, track_running_stats=True)  (fc1): Linear(in_features=25088, out_features=1024, bias=True)  (fc2): Linear(in_features=1024, out_features=10, bias=True))</code></pre><p>This is a very simple classifier with an encoding part that uses two layers with 3x3 convs + batchnorm + relu and a decoding part with two linear layers. If you are not new to PyTorch you may have seen this type of coding before, but there are two problems.</p><p>If we want to add a layer we have to again write lots of code in the <code
…
>        x = self.decoder(x)</span><br><span class="line">        </span><br><span class="line">        <span class="keyword">return</span> x</span><br></pre></td></tr></table></figure><figure class="highlight python"><table><tr><td class="gutter"><pre><span class="line">1</span><br><span class="line">2</span><br></pre></td><td class="code"><pre><span class="line">model = MyCNNClassifier(<span class="number">1</span>, <span class="number">10</span>)</span><br><span class="line">print(model)</span><br></pre></td></tr></table></figure><pre><code>MyCNNClassifier(  (conv_block1): Sequential(    (0): Conv2d(1, 32, kernel_size=(3, 3), stride=(1, 1), padding=(1, 1))    (1): BatchNorm2d(32, eps=1e-05, momentum=0.1, affine=True, track_running_stats=True)    (2): ReLU()  )  (conv_block2): Sequential(    (0): Conv2d(32, 64, kernel_size=(3, 3), stride=(1, 1), padding=(1, 1))    (1): BatchNorm2d(64, eps=1e-05, momentum=0.1, affine=True, track_running_stats=True)    (2): ReLU()  )  (decoder): Sequential(    (0): Linear(in_features=25088, out_features=1024, bias=True)    (1): Sigmoid()    (2): Linear(in_features=1024, out_features=10, bias=True)  ))</code></pre><p>Much Better uhu?</p><p>Did you notice that <code>conv_block1</code> and <code>conv_block2</code> looks almost the same? We could create a function that reteurns a <code>nn.Sequential</code> to even simplify the code!</p><figure class="highlight python"><table><tr><td class="gutter"><pre><span class="line">1</span><br><span class="lin
…
decoder(x)</span><br><span class="line">        </span><br><span class="line">        <span class="keyword">return</span> x</span><br></pre></td></tr></table></figure><figure class="highlight python"><table><tr><td class="gutter"><pre><span class="line">1</span><br><span class="line">2</span><br></pre></td><td class="code"><pre><span class="line">model = MyCNNClassifier(<span class="number">1</span>, <span class="number">10</span>)</span><br><span class="line">print(model)</span><br></pre></td></tr></table></figure><pre><code>MyCNNClassifier(  (encoder): Sequential(    (0): Sequential(      (0): Conv2d(1, 32, kernel_size=(3, 3), stride=(1, 1), padding=(1, 1))      (1): BatchNorm2d(32, eps=1e-05, momentum=0.1, affine=True, track_running_stats=True)      (2): ReLU()    )    (1): Sequential(      (0): Conv2d(32, 64, kernel_size=(3, 3), stride=(1, 1), padding=(1, 1))      (1): BatchNorm2d(64, eps=1e-05, momentum=0.1, affine=True, track_running_stats=True)      (2): ReLU()    )  )  (decoder): Sequential(    (0): Linear(in_features=25088, out_features=1024, bias=True)    (1): Sigmoid()    (2): Linear(in_features=1024, out_features=10, bias=True)  ))</code></pre><p><code>self.encoder</code> now holds booth <code>conv_block</code>. We have decoupled logic for our model and make it easier to read and reuse. Our <code>conv_block</code> function can be imported and used in another model.</p><h2 id="Dynamic-Sequential-create-multiple-layers-at-once"><a href="#Dynamic-Sequential-create-multiple-layer
…
decoder(x)</span><br><span class="line">        </span><br><span class="line">        <span class="keyword">return</span> x</span><br></pre></td></tr></table></figure><figure class="highlight python"><table><tr><td class="gutter"><pre><span class="line">1</span><br><span class="line">2</span><br></pre></td><td class="code"><pre><span class="line">model = MyCNNClassifier(<span class="number">1</span>, <span class="number">10</span>)</span><br><span class="line">print(model)</span><br></pre></td></tr></table></figure><pre><code>MyCNNClassifier(  (encoder): Sequential(    (0): Sequential(      (0): Conv2d(1, 32, kernel_size=(3, 3), stride=(1, 1), padding=(1, 1))      (1): BatchNorm2d(32, eps=1e-05, momentum=0.1, affine=True, track_running_stats=True)      (2): ReLU()    )    (1): Sequential(      (0): Conv2d(32, 64, kernel_size=(3, 3), stride=(1, 1), padding=(1, 1))      (1): BatchNorm2d(64, eps=1e-05, momentum=0.1, affine=True, track_running_stats=True)      (2): ReLU()    )  )  (decoder): Sequential(    (0): Linear(in_features=25088, out_features=1024, bias=True)    (1): Sigmoid()    (2): Linear(in_features=1024, out_features=10, bias=True)  ))</code></pre><p>Let’s break it down. We created an array <code>self.enc_sizes</code> that holds the sizes of our encoder. Then we create an array <code>conv_blocks</code> by iterating the sizes. Since we have to give booth a in size and an outsize for each layer we <code>zip</code>ed the size’array with itself by shifting it by one. </p><p>Just to b
…
"keyword">return</span> x</span><br></pre></td></tr></table></figure><figure class="highlight python"><table><tr><td class="gutter"><pre><span class="line">1</span><br><span class="line">2</span><br></pre></td><td class="code"><pre><span class="line">model = MyCNNClassifier(<span class="number">1</span>, [<span class="number">32</span>,<span class="number">64</span>, <span class="number">128</span>], <span class="number">10</span>)</span><br><span class="line">print(model)</span><br></pre></td></tr></table></figure><pre><code>MyCNNClassifier(  (encoder): Sequential(    (0): Sequential(      (0): Conv2d(1, 32, kernel_size=(3, 3), stride=(1, 1), padding=(1, 1))      (1): BatchNorm2d(32, eps=1e-05, momentum=0.1, affine=True, track_running_stats=True)      (2): ReLU()    )    (1): Sequential(      (0): Conv2d(32, 64, kernel_size=(3, 3), stride=(1, 1), padding=(1, 1))      (1): BatchNorm2d(64, eps=1e-05, momentum=0.1, affine=True, track_running_stats=True)      (2): ReLU()    )    (2): Sequential(      (0): Conv2d(64, 128, kernel_size=(3, 3), stride=(1, 1), padding=(1, 1))      (1): BatchNorm2d(128, eps=1e-05, momentum=0.1, affine=True, track_running_stats=True)      (2): ReLU()    )  )  (decoder): Sequential(    (0): Linear(in_features=25088, out_features=1024, bias=True)    (1): Sigmoid()    (2): Linear(in_features=1024, out_features=10, bias=True)  ))</code></pre><p>We can do the same for the decoder part</p><figure class="highlight python"><table><tr><td class="gutter"><pre><span class="line">1</span><br><span class="line">2</span><br><span class="line">3</span><br><span class="line">4</span><br><span class="line">5</span><br><span class="line">6</span><br><span class="line">7</span><br><span c
…
</pre></td></tr></table></figure><figure class="highlight python"><table><tr><td class="gutter"><pre><span class="line">1</span><br><span class="line">2</span><br></pre></td><td class="code"><pre><span class="line">model = MyCNNClassifier(<span class="number">1</span>, [<span class="number">32</span>,<span class="number">64</span>], [<span class="number">1024</span>, <span class="number">512</span>], <span class="number">10</span>)</span><br><span class="line">print(model)</span><br></pre></td></tr></table></figure><pre><code>MyCNNClassifier(  (encoder): Sequential(    (0): Sequential(      (0): Conv2d(1, 32, kernel_size=(3, 3), stride=(1, 1), padding=(1, 1))      (1): BatchNorm2d(32, eps=1e-05, momentum=0.1, affine=True, track_running_stats=True)      (2): ReLU()    )    (1): Sequential(      (0): Conv2d(32, 64, kernel_size=(3, 3), stride=(1, 1), padding=(1, 1))      (1): BatchNorm2d(64, eps=1e-05, momentum=0.1, affine=True, track_running_stats=True)      (2): ReLU()    )  )  (decoder): Sequential(    (0): Sequential(      (0): Linear(in_features=25088, out_features=1024, bias=True)      (1): Sigmoid()    )    (1): Sequential(      (0): Linear(in_features=1024, out_features=512, bias=True)      (1): Sigmoid()    )  )  (last): Linear(in_features=512, out_features=10, bias=True))</code></pre><p>We followed the same pattern, we create a new block for the decoding part, linear + sigmoid, and we pass an array with the sizes. We had to add a <code>self.last</code> since we do not want to activate the output</p><p>Now, we can even break down our model in two! Encoder + Decoder</p><figure class="highlight python"><table><tr><td class
…
<figure class="highlight python"><table><tr><td class="gutter"><pre><span class="line">1</span><br><span class="line">2</span><br></pre></td><td class="code"><pre><span class="line">model = MyCNNClassifier(<span class="number">1</span>, [<span class="number">32</span>,<span class="number">64</span>], [<span class="number">1024</span>, <span class="number">512</span>], <span class="number">10</span>)</span><br><span class="line">print(model)</span><br></pre></td></tr></table></figure><pre><code>MyCNNClassifier(  (encoder): MyEncoder(    (conv_blokcs): Sequential(      (0): Sequential(        (0): Conv2d(1, 32, kernel_size=(3, 3), stride=(1, 1), padding=(1, 1))        (1): BatchNorm2d(32, eps=1e-05, momentum=0.1, affine=True, track_running_stats=True)        (2): ReLU()      )      (1): Sequential(        (0): Conv2d(32, 64, kernel_size=(3, 3), stride=(1, 1), padding=(1, 1))        (1): BatchNorm2d(64, eps=1e-05, momentum=0.1, affine=True, track_running_stats=True)        (2): ReLU()      )    )  )  (decoder): MyDecoder(    (dec_blocks): Sequential(      (0): Sequential(        (0): Linear(in_features=1024, out_features=512, bias=True)        (1): Sigmoid()      )    )    (last): Linear(in_features=512, out_features=10, bias=True)  ))</code></pre><p>Be aware that <code>MyEncoder</code> and <code>MyDecoder</code> could also be functions that returns a <code>nn.Sequential</code>. I prefer to use the first pattern for models and the second for building blocks.</p><p>By diving our module into submodules it is easier to <strong>share</strong> the code, <strong>debug</strong> it and <s
…
class="gutter"><pre><span class="line">1</span><br><span class="line">2</span><br></pre></td><td class="code"><pre><span class="line">model = MyCNNClassifier(<span class="number">1</span>, [<span class="number">32</span>,<span class="number">64</span>], [<span class="number">1024</span>, <span class="number">512</span>], <span class="number">10</span>, activation=<span class="string">'lrelu'</span>)</span><br><span class="line">print(model)</span><br></pre></td></tr></table></figure><pre><code>MyCNNClassifier(  (encoder): MyEncoder(    (conv_blokcs): Sequential(      (0): Sequential(        (0): Conv2d(1, 32, kernel_size=(3, 3), stride=(1, 1), padding=(1, 1))        (1): BatchNorm2d(32, eps=1e-05, momentum=0.1, affine=True, track_running_stats=True)        (2): LeakyReLU(negative_slope=0.01)      )      (1): Sequential(        (0): Conv2d(32, 64, kernel_size=(3, 3), stride=(1, 1), padding=(1, 1))        (1): BatchNorm2d(64, eps=1e-05, momentum=0.1, affine=True, track_running_stats=True)        (2): LeakyReLU(negative_slope=0.01)      )    )  )  (decoder): MyDecoder(    (dec_blocks): Sequential(      (0): Sequential(        (0): Linear(in_features=1024, out_features=512, bias=True)        (1): Sigmoid()      )    )    (last): Linear(in_features=512, out_features=10, bias=True)  ))</code></pre><h2 id="Conclusion"><a href="#Conclusion" class="headerlink" title="Conclusion"></a>Conclusion</h2><p>So, in summary.</p><ul><li>Use <code>Module</code> when you have a big block compose of multiple smaller blocks</li><li>Use <code>Sequential</code> when you want to create a small block from layers</li><li>Use <code>ModuleList</code> when you need to iterate through some layers or building blocks and do something</li><li>Use <code>ModuleDict</code> when you need to parametise some blocks of your model, for example an activation function</li></ul>]]></content>
…
.load(<span class="string">"stage-1"</span>)</span><br></pre></td></tr></table></figure><pre><code>Learner(data=ImageDataBunch;Train: LabelList (512 items)x: ImageListImage (3, 224, 224),Image (3, 224, 224),Image (3, 224, 224),Image (3, 224, 224),Image (3, 224, 224)y: CategoryListshibaInu,shibaInu,shibaInu,shibaInu,shibaInuPath: data/dogs;Valid: LabelList (128 items)x: ImageListImage (3, 224, 224),Image (3, 224, 224),Image (3, 224, 224),Image (3, 224, 224),Image (3, 224, 224)y: CategoryListshibaInu,alaska,akita,shibaInu,huskyPath: data/dogs;Test: None, model=Sequential(  (0): Sequential(    (0): Conv2d(3, 64, kernel_size=(7, 7), stride=(2, 2), padding=(3, 3), bias=False)    (1): BatchNorm2d(64, eps=1e-05, momentum=0.1, affine=True, track_running_stats=True)    (2): ReLU(inplace)    (3): MaxPool2d(kernel_size=3, stride=2, padding=1, dilation=1, ceil_mode=False)    (4): Sequential(      (0): BasicBlock(        (conv1): Conv2d(64, 64, kernel_size=(3, 3), stride=(1, 1), padding=(1, 1), bias=False)        (bn1): BatchNorm2d(64, eps=1e-05, momentum=0.1, affine=True, track_running_stats=True)        (relu): ReLU(inplace)        (conv2): Conv2d(64, 64, kernel_size=(3, 3), stride=(1, 1), padding=(1, 1), bias=False)        (bn2): BatchNorm2d(64, eps=1e-05, momentum=0.1, affine=True, track_running_stats=True)      )      (1): BasicBlock(        (conv1): Conv2d(64, 64, kernel_size=(3, 3), stride=(1, 1), padding=(1, 1), bias=False)        (bn1): BatchNorm2d(64, eps=1e-05, momentum=0.1, affine=True, track_running_stats=True)        (relu): ReLU(inplace)        (conv2): Conv2d(64, 64, kernel_size=(3, 3), stride=(1, 1), padding=(1, 1), bias=False)        (bn2): BatchNorm2d(64, eps=1e-05, momentum=0.1, affine=True, track_running_stats=True)      )      (2): BasicBlock(        (conv1): Conv2d(64, 64, kernel_size=(3, 3), stride=(1, 1), padding=(1, 1), bias=False)        (bn1): BatchNorm2d(64, eps=1e-05, momentum=0.1, affine=True, track_running_stats=True)        (relu): ReLU(inplace)        (conv2): Conv2d(64, 64, kernel_size=(3, 3), stride=(1, 1), padding=(1, 1), bias=False)        (bn2): BatchNorm2d(64, eps=1e-05, momentum=0.1, affine=True, track_running_stats=True)      )    )    (5): Sequential(      (0): BasicBlock(        (conv1): Conv2d(64, 128, kernel_size=(3, 3), stride=(2, 2), padding=(1, 1), bias=False)        (bn1): BatchNorm2d(128, eps=1e-05, momentum=0.1, affine=True, track_running_stats=True)        (relu): ReLU(inplace)        (conv2): Conv2d(128, 128, kernel_size=(3, 3), stride=(1, 1), padding=(1, 1), bias=False)        (bn2): BatchNorm2d(128, eps=1e-05, momentum=0.1, affine=True, track_running_stats=True)        (downsample): Sequential(          (0): Conv2d(64, 128, kernel_size=(1, 1), stride=(2, 2), bias=False)          (1): BatchNorm2d(128, eps=1e-05, momentum=0.1, affine=True, track_running_stats=True)        )      )      (1): BasicBlock(        (conv1): Conv2d(128, 128, kernel_size=(3, 3), stride=(1, 1), padding=(1, 1), bias=False)        (bn1): BatchNorm2d(128, eps=1e-05, momentum=0.1, affine=True, track_running_stats=True)        (relu): ReLU(inplace)        (conv2): Conv2d(128, 128, kernel_size=(3, 3), stride=(1, 1), padding=(1, 1), bias=False)        (bn2): BatchNorm2d(128, eps=1e-05, momentum=0.1, affine=True, track_running_stats=True)      )      (2): BasicBlock(        (conv1): Conv2d(128, 128, kernel_size=(3, 3), stride=(1, 1), padding=(1, 1), bias=False)        (bn1): BatchNorm2d(128, eps=1e-05, momentum=0.1, affine=True, track_running_stats=True)        (relu): ReLU(inplace)        (conv2): Conv2d(128, 128, kernel_size=(3, 3), stride=(1, 1), padding=(1, 1), bias=False)        (bn2): BatchNorm2d(128, eps=1e-05, momentum=0.1, affine=True, track_running_stats=True)      )      (3): BasicBlock(        (conv1): Conv2d(128, 128, kernel_size=(3, 3), stride=(1, 1), padding=(1, 1), bias=False)        (bn1): BatchNorm2d(128, eps=1e-05, momentum=0.1, affine=True, track_running_stats=True)        (relu): ReLU(inplace)        (conv2): Conv2d(128, 128, kernel_size=(3, 3), stride=(1, 1), padding=(1, 1), bias=False)        (bn2): BatchNorm2d(128, eps=1e-05, momentum=0.1, affine=True, track_running_stats=True)      )    )    (6): Sequential(      (0): BasicBlock(        (conv1): Conv2d(128, 256, kernel_size=(3, 3), stride=(2, 2), padding=(1, 1), bias=False)        (bn1): BatchNorm2d(256, eps=1e-05, momentum=0.1, affine=True, track_running_stats=True)        (relu): ReLU(inplace)        (conv2): Conv2d(256, 256, kernel_size=(3, 3), stride=(1, 1), padding=(1, 1), bias=False)        (bn2): BatchNorm2d(256, eps=1e-05, momentum=0.1, affine=True, track_running_stats=True)        (downsample): Sequential(          (0): Conv2d(128, 256, kernel_size=(1, 1), stride=(2, 2), bias=False)          (1): BatchNorm2d(256, eps=1e-05, momentum=0.1, affine=True, track_running_stats=True)        )      )      (1): BasicBlock(        (conv1): Conv2d(256, 256, kernel_size=(3, 3), stride=(1, 1), padding=(1, 1), bias=False)        (bn1): BatchNorm2d(256, eps=1e-05, momentum=0.1, affine=True, track_running_stats=True)        (relu): ReLU(inplace)        (conv2): Conv2d(256, 256, kernel_size=(3, 3), stride=(1, 1), padding=(1, 1), bias=False)        (bn2): BatchNorm2d(256, eps=1e-05, momentum=0.1, affine=True, track_running_stats=True)      )      (2): BasicBlock(        (conv1): Conv2d(256, 256, kernel_size=(3, 3), stride=(1, 1), padding=(1, 1), bias=False)        (bn1): BatchNorm2d(256, eps=1e-05, momentum=0.1, affine=True, track_running_stats=True)        (relu): ReLU(inplace)        (conv2): Conv2d(256, 256, kernel_size=(3, 3), stride=(1, 1), padding=(1, 1), bias=False)        (bn2): BatchNorm2d(256, eps=1e-05, momentum=0.1, affine=True, track_running_stats=True)      )      (3): BasicBlock(        (conv1): Conv2d(256, 256, kernel_size=(3, 3), stride=(1, 1), padding=(1, 1), bias=False)        (bn1): BatchNorm2d(256, eps=1e-05, momentum=0.1, affine=True, track_running_stats=True)        (relu): ReLU(inplace)        (conv2): Conv2d(256, 256, kernel_size=(3, 3), stride=(1, 1), padding=(1, 1), bias=False)        (bn2): BatchNorm2d(256, eps=1e-05, momentum=0.1, affine=True, track_running_stats=True)      )      (4): BasicBlock(        (conv1): Conv2d(256, 256, kernel_size=(3, 3), stride=(1, 1), padding=(1, 1), bias=False)        (bn1): BatchNorm2d(256, eps=1e-05, momentum=0.1, affine=True, track_running_stats=True)        (relu): ReLU(inplace)        (conv2): Conv2d(256, 256, kernel_size=(3, 3), stride=(1, 1), padding=(1, 1), bias=False)        (bn2): BatchNorm2d(256, eps=1e-05, momentum=0.1, affine=True, track_running_stats=True)      )      (5): BasicBlock(        (conv1): Conv2d(256, 256, kernel_size=(3, 3), stride=(1, 1), padding=(1, 1), bias=False)        (bn1): BatchNorm2d(256, eps=1e-05, momentum=0.1, affine=True, track_running_stats=True)        (relu): ReLU(inplace)        (conv2): Conv2d(256, 256, kernel_size=(3, 3), stride=(1, 1), padding=(1, 1), bias=False)        (bn2): BatchNorm2d(256, eps=1e-05, momentum=0.1, affine=True, track_running_stats=True)      )    )    (7): Sequential(      (0): BasicBlock(        (conv1): Conv2d(256, 512, kernel_size=(3, 3), stride=(2, 2), padding=(1, 1), bias=False)        (bn1): BatchNorm2d(512, eps=1e-05, momentum=0.1, affine=True, track_running_stats=True)        (relu): ReLU(inplace)        (conv2): Conv2d(512, 512, kernel_size=(3, 3), stride=(1, 1), padding=(1, 1), bias=False)        (bn2): BatchNorm2d(512, eps=1e-05, momentum=0.1, affine=True, track_running_stats=True)        (downsample): Sequential(          (0): Conv2d(256, 512, kernel_size=(1, 1), stride=(2, 2), bias=False)          (1): BatchNorm2d(512, eps=1e-05, momentum=0.1, affine=True, track_running_stats=True)        )      )      (1): BasicBlock(        (conv1): Conv2d(512, 512, kernel_size=(3, 3), stride=(1, 1), padding=(1, 1), bias=False)        (bn1): BatchNorm2d(512, eps=1e-05, momentum=0.1, affine=True, track_running_stats=True)        (relu): ReLU(inplace)        (conv2): Conv2d(512, 512, kernel_size=(3, 3), stride=(1, 1), padding=(1, 1), bias=False)        (bn2): BatchNorm2d(512, eps=1e-05, momentum=0.1, affine=True, track_running_stats=True)      )      (2): BasicBlock(        (conv1): Conv2d(512, 512, kernel_size=(3, 3), stride=(1, 1), padding=(1, 1), bias=False)        (bn1): BatchNorm2d(512, eps=1e-05, momentum=0.1, affine=True, track_running_stats=True)        (relu): ReLU(inplace)        (conv2): Conv2d(512, 512, kernel_size=(3, 3), stride=(1, 1), padding=(1, 1), bias=False)        (bn2): BatchNorm2d(512, eps=1e-05, momentum=0.1, affine=True, track_running_stats=True)      )    )  )  (1): Sequential(    (0): AdaptiveConcatPool2d(      (ap): AdaptiveAvgPool2d(output_size=1)      (mp): AdaptiveMaxPool2d(output_size=1)    )    (1): Flatten()    (2): BatchNorm1d(1024, eps=1e-05, momentum=0.1, affine=True, track_running_stats=True)    (3): Dropout(p=0.25)    (4): Linear(in_features=1024, out_features=512, bias=True)    (5): ReLU(inplace)    (6): BatchNorm1d(512, eps=1e-05, momentum=0.1, affine=True, track_running_stats=True)    (7): Dropout(p=0.5)    (8): Linear(in_features=512, out_features=4, bias=True)  )), opt_func=functools.partial(&lt;class &#39;torch.optim.adam.Adam&#39;&gt;, betas=(0.9, 0.99)), loss_func=FlattenedLoss of CrossEntropyLoss(), metrics=[&lt;function error_rate at 0x7f144e518e18&gt;], true_wd=True, bn_wd=True, wd=0.01, train_bn=True, path=PosixPath(&#39;data/dogs&#39;), model_dir=&#39;models&#39;, callback_fns=[functools.partial(&lt;class &#39;fastai.basic_train.Recorder&#39;&gt;, add_time=True, silent=False)], callbacks=[], layer_groups=[Sequential(  (0): Conv2d(3, 64, kernel_size=(7, 7), stride=(2, 2), padding=(3, 3), bias=False)  (1): BatchNorm2d(64, eps=1e-05, momentum=0.1, affine=True, track_running_stats=True)  (2): ReLU(inplace)  (3): MaxPool2d(kernel_size=3, stride=2, padding=1, dilation=1, ceil_mode=False)  (4): Conv2d(64, 64, kernel_size=(3, 3), stride=(1, 1), padding=(1, 1), bias=False)  (5): BatchNorm2d(64, eps=1e-05, momentum=0.1, affine=True, track_running_stats=True)  (6): ReLU(inplace)  (7): Conv2d(64, 64, kernel_size=(3, 3), stride=(1, 1), padding=(1, 1), bias=False)  (8): BatchNorm2d(64, eps=1e-05, momentum=0.1, affine=True, track_running_stats=True)  (9): Conv2d(64, 64, kernel_size=(3, 3), stride=(1, 1), padding=(1, 1), bias=False)  (10): BatchNorm2d(64, eps=1e-05, momentum=0.1, affine=True, track_running_stats=True)  (11): ReLU(inplace)  (12): Conv2d(64, 64, kernel_size=(3, 3), stride=(1, 1), padding=(1, 1), bias=False)  (13): BatchNorm2d(64, eps=1e-05, momentum=0.1, affine=True, track_running_stats=True)  (14): Conv2d(64, 64, kernel_size=(3, 3), stride=(1, 1), padding=(1, 1), bias=False)  (15): BatchNorm2d(64, eps=1e-05, momentum=0.1, affine=True, track_running_stats=True)  (16): ReLU(inplace)  (17): Conv2d(64, 64, kernel_size=(3, 3), stride=(1, 1), padding=(1, 1), bias=False)  (18): BatchNorm2d(64, eps=1e-05, momentum=0.1, affine=True, track_running_stats=True)  (19): Conv2d(64, 128, kernel_size=(3, 3), stride=(2, 2), padding=(1, 1), bias=False)  (20): BatchNorm2d(128, eps=1e-05, momentum=0.1, affine=True, track_running_stats=True)  (21): ReLU(inplace)  (22): Conv2d(128, 128, kernel_size=(3, 3), stride=(1, 1), padding=(1, 1), bias=False)  (23): BatchNorm2d(128, eps=1e-05, momentum=0.1, affine=True, track_running_stats=True)  (24): Conv2d(64, 128, kernel_size=(1, 1), stride=(2, 2), bias=False)  (25): BatchNorm2d(128, eps=1e-05, momentum=0.1, affine=True, track_running_stats=True)  (26): Conv2d(128, 128, kernel_size=(3, 3), stride=(1, 1), padding=(1, 1), bias=False)  (27): BatchNorm2d(128, eps=1e-05, momentum=0.1, affine=True, track_running_stats=True)  (28): ReLU(inplace)  (29): Conv2d(128, 128, kernel_size=(3, 3), stride=(1, 1), padding=(1, 1), bias=False)  (30): BatchNorm2d(128, eps=1e-05, momentum=0.1, affine=True, track_running_stats=True)  (31): Conv2d(128, 128, kernel_size=(3, 3), stride=(1, 1), padding=(1, 1), bias=False)  (32): BatchNorm2d(128, eps=1e-05, momentum=0.1, affine=True, track_running_stats=True)  (33): ReLU(inplace)  (34): Conv2d(128, 128, kernel_size=(3, 3), stride=(1, 1), padding=(1, 1), bias=False)  (35): BatchNorm2d(128, eps=1e-05, momentum=0.1, affine=True, track_running_stats=True)  (36): Conv2d(128, 128, kernel_size=(3, 3), stride=(1, 1), padding=(1, 1), bias=False)  (37): BatchNorm2d(128, eps=1e-05, momentum=0.1, affine=True, track_running_stats=True)  (38): ReLU(inplace)  (39): Conv2d(128, 128, kernel_size=(3, 3), stride=(1, 1), padding=(1, 1), bias=False)  (40): BatchNorm2d(128, eps=1e-05, momentum=0.1, affine=True, track_running_stats=True)), Sequential(  (0): Conv2d(128, 256, kernel_size=(3, 3), stride=(2, 2), padding=(1, 1), bias=False)  (1): BatchNorm2d(256, eps=1e-05, momentum=0.1, affine=True, track_running_stats=True)  (2): ReLU(inplace)  (3): Conv2d(256, 256, kernel_size=(3, 3), stride=(1, 1), padding=(1, 1), bias=False)  (4): BatchNorm2d(256, eps=1e-05, momentum=0.1, affine=True, track_running_stats=True)  (5): Conv2d(128, 256, kernel_size=(1, 1), stride=(2, 2), bias=False)  (6): BatchNorm2d(256, eps=1e-05, momentum=0.1, affine=True, track_running_stats=True)  (7): Conv2d(256, 256, kernel_size=(3, 3), stride=(1, 1), padding=(1, 1), bias=False)  (8): BatchNorm2d(256, eps=1e-05, momentum=0.1, affine=True, track_running_stats=True)  (9): ReLU(inplace)  (10): Conv2d(256, 256, kernel_size=(3, 3), stride=(1, 1), padding=(1, 1), bias=False)  (11): BatchNorm2d(256, eps=1e-05, momentum=0.1, affine=True, track_running_stats=True)  (12): Conv2d(256, 256, kernel_size=(3, 3), stride=(1, 1), padding=(1, 1), bias=False)  (13): BatchNorm2d(256, eps=1e-05, momentum=0.1, affine=True, track_running_stats=True)  (14): ReLU(inplace)  (15): Conv2d(256, 256, kernel_size=(3, 3), stride=(1, 1), padding=(1, 1), bias=False)  (16): BatchNorm2d(256, eps=1e-05, momentum=0.1, affine=True, track_running_stats=True)  (17): Conv2d(256, 256, kernel_size=(3, 3), stride=(1, 1), padding=(1, 1), bias=False)  (18): BatchNorm2d(256, eps=1e-05, momentum=0.1, affine=True, track_running_stats=True)  (19): ReLU(inplace)  (20): Conv2d(256, 256, kernel_size=(3, 3), stride=(1, 1), padding=(1, 1), bias=False)  (21): BatchNorm2d(256, eps=1e-05, momentum=0.1, affine=True, track_running_stats=True)  (22): Conv2d(256, 256, kernel_size=(3, 3), stride=(1, 1), padding=(1, 1), bias=False)  (23): BatchNorm2d(256, eps=1e-05, momentum=0.1, affine=True, track_running_stats=True)  (24): ReLU(inplace)  (25): Conv2d(256, 256, kernel_size=(3, 3), stride=(1, 1), padding=(1, 1), bias=False)  (26): BatchNorm2d(256, eps=1e-05, momentum=0.1, affine=True, track_running_stats=True)  (27): Conv2d(256, 256, kernel_size=(3, 3), stride=(1, 1), padding=(1, 1), bias=False)  (28): BatchNorm2d(256, eps=1e-05, momentum=0.1, affine=True, track_running_stats=True)  (29): ReLU(inplace)  (30): Conv2d(256, 256, kernel_size=(3, 3), stride=(1, 1), padding=(1, 1), bias=False)  (31): BatchNorm2d(256, eps=1e-05, momentum=0.1, affine=True, track_running_stats=True)  (32): Conv2d(256, 512, kernel_size=(3, 3), stride=(2, 2), padding=(1, 1), bias=False)  (33): BatchNorm2d(512, eps=1e-05, momentum=0.1, affine=True, track_running_stats=True)  (34): ReLU(inplace)  (35): Conv2d(512, 512, kernel_size=(3, 3), stride=(1, 1), padding=(1, 1), bias=False)  (36): BatchNorm2d(512, eps=1e-05, momentum=0.1, affine=True, track_running_stats=True)  (37): Conv2d(256, 512, kernel_size=(1, 1), stride=(2, 2), bias=False)  (38): BatchNorm2d(512, eps=1e-05, momentum=0.1, affine=True, track_running_stats=True)  (39): Conv2d(512, 512, kernel_size=(3, 3), stride=(1, 1), padding=(1, 1), bias=False)  (40): BatchNorm2d(512, eps=1e-05, momentum=0.1, affine=True, track_running_stats=True)  (41): ReLU(inplace)  (42): Conv2d(512, 512, kernel_size=(3, 3), stride=(1, 1), padding=(1, 1), bias=False)  (43): BatchNorm2d(512, eps=1e-05, momentum=0.1, affine=True, track_running_stats=True)  (44): Conv2d(512, 512, kernel_size=(3, 3), stride=(1, 1), padding=(1, 1), bias=False)  (45): BatchNorm2d(512, eps=1e-05, momentum=0.1, affine=True, track_running_stats=True)  (46): ReLU(inplace)  (47): Conv2d(512, 512, kernel_size=(3, 3), stride=(1, 1), padding=(1, 1), bias=False)  (48): BatchNorm2d(512, eps=1e-05, momentum=0.1, affine=True, track_running_stats=True)), Sequential(  (0): AdaptiveAvgPool2d(output_size=1)  (1): AdaptiveMaxPool2d(output_size=1)  (2): Flatten()  (3): BatchNorm1d(1024, eps=1e-05, momentum=0.1, affine=True, track_running_stats=True)  (4): Dropout(p=0.25)  (5): Linear(in_features=1024, out_features=512, bias=True)  (6): ReLU(inplace)  (7): BatchNorm1d(512, eps=1e-05, momentum=0.1, affine=True, track_running_stats=True)  (8): Dropout(p=0.5)  (9): Linear(in_features=512, out_features=4, bias=True))], add_time=True, silent=False)</code></pre><figure class="highlight python"><table><tr><td class="gutter"><pre><span class="line">1</span><br><span class="line">2</span><br></pre></td><td class="code"><pre><span class="line">lean.unfreeze()</span><br><span class="line">lean.lr_find()</span><br></pre></td></tr></table></figure><pre><code>LR Finder is com
…
