…
figure class="highlight python"><table><tr><td class="gutter"><pre><span class="line">1</span><br></pre></td><td class="code"><pre><span class="line">encoder.summary()</span><br></pre></td></tr></table></figure><pre><code>Model: &quot;model&quot;_________________________________________________________________Layer (type)                 Output Shape              Param #   =================================================================input_1 (InputLayer)         [(None, 256, 256, 3)]     0         _________________________________________________________________conv2d (Conv2D)              (None, 256, 256, 64)      1792      _________________________________________________________________conv2d_1 (Conv2D)            (None, 256, 256, 64)      36928     _________________________________________________________________max_pooling2d (MaxPooling2D) (None, 128, 128, 64)      0         _________________________________________________________________dropout (Dropout)            (None, 128, 128, 64)      0         _________________________________________________________________conv2d_2 (Conv2D)            (None, 128, 128, 128)     73856     _________________________________________________________________conv2d_3 (Conv2D)            (None, 128, 128, 128)     147584    _________________________________________________________________max_pooling2d_1 (MaxPooling2 (None, 64, 64, 128)       0         _________________________________________________________________conv2d_4 (Conv2D)            (None, 64, 64, 256)       295168    =================================================================Total params: 555,328Trainable params: 555,328Non-trainable params: 0_________________________________________________________________</code></pre><h2 id="Task-3-Build-the-Decoder-to-Complete-the-Network"><a href="#Task-3-Build-the-Decoder-to-Complete-the-Network" class="headerlink" title="Task 3: Build the Decoder to Complete th
…
tr></table></figure><figure class="highlight python"><table><tr><td class="gutter"><pre><span class="line">1</span><br></pre></td><td class="code"><pre><span class="line">autoencoder.summary()</span><br></pre></td></tr></table></figure><pre><code>Model: &quot;model_1&quot;__________________________________________________________________________________________________Layer (type)                    Output Shape         Param #     Connected to                     ==================================================================================================input_2 (InputLayer)            [(None, 256, 256, 3) 0                                            __________________________________________________________________________________________________conv2d_5 (Conv2D)               (None, 256, 256, 64) 1792        input_2[0][0]                    __________________________________________________________________________________________________conv2d_6 (Conv2D)               (None, 256, 256, 64) 36928       conv2d_5[0][0]                   __________________________________________________________________________________________________max_pooling2d_2 (MaxPooling2D)  (None, 128, 128, 64) 0           conv2d_6[0][0]                   __________________________________________________________________________________________________dropout_1 (Dropout)             (None, 128, 128, 64) 0           max_pooling2d_2[0][0]            __________________________________________________________________________________________________conv2d_7 (Conv2D)               (None, 128, 128, 128 73856       dropout_1[0][0]                  __________________________________________________________________________________________________conv2d_8 (Conv2D)               (None, 128, 128, 128 147584      conv2d_7[0][0]                   __________________________________________________________________________________________________max_pooling2d_3 (MaxPooling2D)  (None, 64, 64, 128)  0           conv2d_8[0][0]                   __________________________________________________________________________________________________conv2d_9 (Conv2D)               (None, 64, 64, 256)  295168      max_pooling2d_3[0][0]            __________________________________________________________________________________________________up_sampling2d (UpSampling2D)    (None, 128, 128, 256 0           conv2d_9[0][0]                   __________________________________________________________________________________________________conv2d_10 (Conv2D)              (None, 128, 128, 128 295040      up
…
ta_1=<span class="number">0.5</span>)</span><br><span class="line"></span><br><span class="line">discriminator.compile(loss=<span class="string">'binary_crossentropy'</span>, optimizer=opt, metrics=[<span class="string">'accuracy'</span>])</span><br><span class="line">discriminator.summary()</span><br></pre></td></tr></table></figure><pre><code>Model: &quot;sequential&quot;_________________________________________________________________Layer (type)                 Output Shape              Param #   =================================================================conv2d (Conv2D)              (None, 13, 13, 64)        640       _________________________________________________________________leaky_re_lu (LeakyReLU)      (None, 13, 13, 64)        0         _________________________________________________________________batch_normalization (BatchNo (None, 13, 13, 64)        256       _________________________________________________________________conv2d_1 (Conv2D)            (None, 5, 5, 128)         204928    _________________________________________________________________leaky_re_lu_1 (LeakyReLU)    (None, 5, 5, 128)         0         _________________________________________________________________batch_normalization_1 (Batch (None, 5, 5, 128)         512       _________________________________________________________________conv2d_2 (Conv2D)            (None, 1, 1, 256)         819456    _________________________________________________________________leaky_re_lu_2 (LeakyReLU)    (None, 1, 1, 256)         0         _________________________________________________________________batch_normalization_2 (Batch (None, 1, 1, 256)         1024      _________________________________________________________________flatten (Flatten)            (None, 256)               0         _________________________________________________________________dense (Dense)                (None, 1)                 257       =================================================================Total params: 1,027,073Trainable params: 1,026,177Non-trainable params: 896_________________________________________________________________</code></pre><h1 id="Task-4-Generator"><a href="#Task-4-Generator" class="headerlink" title="Task 4: Generator"></a>Task 4: Generator</h1><figure class="highlight python"><table><tr><td cl
…
span class="line">    Conv2DTranspose(<span class="number">1</span>, <span class="number">4</span>, activation=<span class="string">'sigmoid'</span>)</span><br><span class="line"></span><br><span class="line">])</span><br><span class="line"></span><br><span class="line">generator.summary()</span><br></pre></td></tr></table></figure><pre><code>Model: &quot;sequential_1&quot;_________________________________________________________________Layer (type)                 Output Shape              Param #   =================================================================dense_1 (Dense)              (None, 256)               512       _________________________________________________________________reshape (Reshape)            (None, 1, 1, 256)         0         _________________________________________________________________conv2d_transpose (Conv2DTran (None, 5, 5, 256)         1638656   _________________________________________________________________batch_normalization_3 (Batch (None, 5, 5, 256)         1024      _________________________________________________________________conv2d_transpose_1 (Conv2DTr (None, 9, 9, 128)         819328    _________________________________________________________________batch_normalization_4 (Batch (None, 9, 9, 128)         512       _________________________________________________________________conv2d_transpose_2 (Conv2DTr (None, 21, 21, 64)        204864    _________________________________________________________________batch_normalization_5 (Batch (None, 21, 21, 64)        256       _________________________________________________________________conv2d_transpose_3 (Conv2DTr (None, 25, 25, 32)        51232     _________________________________________________________________batch_normalization_6 (Batch (None, 25, 25, 32)        128       _________________________________________________________________conv2d_transpose_4 (Conv2DTr (None, 28, 28, 1)         513       =================================================================Total params: 2,717,025Trainable params: 2,716,065Non-trainable params: 960_________________________________________________________________</code></pre><figure class="highlight python"><table><tr><td class="gutter"><pre><span class="line">1</span><br><span class="line">2</span><br><span class="line">3</span><br><span class="l
…
