…
pan><br><span class="line">generator.add(L.Conv2D(<span class="number">3</span>,kernel_size=<span class="number">3</span>,activation=<span class="keyword">None</span>))</span><br></pre></td></tr></table></figure>
<figure class="highlight python"><table><tr><td class="code"><pre><span class="line">generator.summary()</span><br></pre></td></tr></table></figure>
<pre><code>_________________________________________________________________
Layer (type)                 Output Shape              Param #   
=================================================================
noise (InputLayer)           (None, 256)               0         
_________________________________________________________________
dense_1 (Dense)              (None, 640)               164480    
_________________________________________________________________
reshape_1 (Reshape)          (None, 8, 8, 10)          0         
_________________________________________________________________
conv2d_transpose_1 (Conv2DTr (None, 12, 12, 64)        16064     
_________________________________________________________________
conv2d_transpose_2 (Conv2DTr (None, 16, 16, 64)        102464    
_________________________________________________________________
up_sampling2d_1 (UpSampling2 (None, 32, 32, 64)        0         
_________________________________________________________________
conv2d_transpose_3 (Conv2DTr (None, 34, 34, 32)        18464     
_________________________________________________________________
conv2d_transpose_4 (Conv2DTr (None, 36, 36, 32)        9248      
_________________________________________________________________
conv2d_transpose_5 (Conv2DTr (None, 38, 38, 32)        9248      
_________________________________________________________________
conv2d_1 (Conv2D)            (None, 36, 36, 3)         867       
=================================================================
Total params: 320,835
Trainable params: 320,835
Non-trainable params: 0
_________________________________________________________________
</code></pre><figure class="highlight python"><table><tr><td class="code"><pre><span class="line"><span class="keyword">assert</span> generator.output_shape[<span class="number">1</span>:] == IMG_SHAPE, <span class="string">"generator must output an image of shape %s, but instead it produces %s"</span>%(IMG_SHAPE,generator.output_shape[<span class="number">1</span>:])</span><br></pre></td></tr></table></figure>
…
</code></pre><figure class="highlight python"><table><tr><td class="code"><pre><span class="line"><span class="comment"># Look at encoder and decoder shapes.</span></span><br><span class="line"><span class="comment"># Total number of trainable parameters of encoder and decoder should be close.</span></span><br><span class="line">s = reset_tf_session()</span><br><span class="line">encoder, decoder = build_deep_autoencoder(IMG_SHAPE, code_size=<span class="number">32</span>)</span><br><span class="line">encoder.summary()</span><br><span class="line">decoder.summary()</span><br></pre></td></tr></table></figure>
<pre><code>_________________________________________________________________
Layer (type)                 Output Shape              Param #   
=================================================================
input_1 (InputLayer)         (None, 32, 32, 3)         0         
_________________________________________________________________
conv2d_1 (Conv2D)            (None, 32, 32, 32)        896       
_________________________________________________________________
max_pooling2d_1 (MaxPooling2 (None, 16, 16, 32)        0         
_________________________________________________________________
conv2d_2 (Conv2D)            (None, 16, 16, 64)        18496     
_________________________________________________________________
max_pooling2d_2 (MaxPooling2 (None, 8, 8, 64)          0         
_________________________________________________________________
conv2d_3 (Conv2D)            (None, 8, 8, 128)         73856     
_________________________________________________________________
max_pooling2d_3 (MaxPooling2 (None, 4, 4, 128)         0         
_________________________________________________________________
conv2d_4 (Conv2D)            (None, 4, 4, 256)         295168    
_________________________________________________________________
max_pooling2d_4 (MaxPooling2 (None, 2, 2, 256)         0         
_________________________________________________________________
flatten_1 (Flatten)          (None, 1024)              0         
_________________________________________________________________
dense_1 (Dense)              (None, 32)                32800     
=================================================================
Total params: 421,216
Trainable params: 421,216
Non-trainable params: 0
_________________________________________________________________
_________________________________________________________________
Layer (type)                 Output Shape              Param #   
=================================================================
input_2 (InputLayer)         (None, 32)                0         
_________________________________________________________________
dense_2 (Dense)              (None, 1024)              33792     
_________________________________________________________________
reshape_1 (Reshape)          (None, 2, 2, 256)         0         
_________________________________________________________________
conv2d_transpose_1 (Conv2DTr (None, 4, 4, 128)         295040    
_________________________________________________________________
conv2d_transpose_2 (Conv2DTr (None, 8, 8, 64)          73792     
_________________________________________________________________
conv2d_transpose_3 (Conv2DTr (None, 16, 16, 32)        18464     
_________________________________________________________________
conv2d_transpose_4 (Conv2DTr (None, 32, 32, 3)         867       
=================================================================
Total params: 421,955
Trainable params: 421,955
Non-trainable params: 0
_________________________________________________________________
</code></pre><p>Convolutional autoencoder training. This will take <strong>1 hour</strong>. You’re aiming at ~0.0056 validation MSE and ~0.0054 training MSE.</p>
<figure class="highlight p
…
<pre><code>WARNING:tensorflow:From /usr/local/lib/python3.6/dist-packages/tensorflow/python/ops/resource_variable_ops.py:435: colocate_with (from tensorflow.python.framework.ops) is deprecated and will be removed in a future version.
Instructions for updating:
Colocations handled automatically by placer.
</code></pre><p>The model.summary() method call prints a summary of the NN </p>
<figure class="highlight python"><table><tr><td class="code"><pre><span class="line">model.summary()</span><br></pre></td></tr></table></figure>
<pre><code>_________________________________________________________________
Layer (type)                 Output Shape              Param #   
=================================================================
conv2d (Conv2D)              (None, 148, 148, 16)      448       
_________________________________________________________________
max_pooling2d (MaxPooling2D) (None, 74, 74, 16)        0         
_________________________________________________________________
conv2d_1 (Conv2D)            (None, 72, 72, 32)        4640      
_________________________________________________________________
max_pooling2d_1 (MaxPooling2 (None, 36, 36, 32)        0         
_________________________________________________________________
conv2d_2 (Conv2D)            (None, 34, 34, 64)        18496     
_________________________________________________________________
max_pooling2d_2 (MaxPooling2 (None, 17, 17, 64)        0         
_________________________________________________________________
flatten (Flatten)            (None, 18496)             0         
_________________________________________________________________
dense (Dense)                (None, 512)               9470464   
_________________________________________________________________
dense_1 (Dense)              (None, 1)                 513       
=================================================================
Total params: 9,494,561
Trainable params: 9,494,561
Non-trainable params: 0
_________________________________________________________________
</code></pre><p>The “output shape” column shows how the size of your feature map evolves in each successive layer. The convolution layers reduce the size of the feature maps by a bit due to padding, and each pooling layer halves the dimensions.</p>
…
<pre><code>WARNING:tensorflow:From /usr/local/lib/python3.6/dist-packages/tensorflow/python/ops/resource_variable_ops.py:435: colocate_with (from tensorflow.python.framework.ops) is deprecated and will be removed in a future version.
Instructions for updating:
Colocations handled automatically by placer.
</code></pre><p>The model.summary() method call prints a summary of the NN </p>
<figure class="highlight python"><table><tr><td class="code"><pre><span class="line">model.summary()</span><br></pre></td></tr></table></figure>
<pre><code>_________________________________________________________________
Layer (type)                 Output Shape              Param #   
=================================================================
conv2d (Conv2D)              (None, 298, 298, 16)      448       
_________________________________________________________________
max_pooling2d (MaxPooling2D) (None, 149, 149, 16)      0         
_________________________________________________________________
conv2d_1 (Conv2D)            (None, 147, 147, 32)      4640      
_________________________________________________________________
max_pooling2d_1 (MaxPooling2 (None, 73, 73, 32)        0         
_________________________________________________________________
conv2d_2 (Conv2D)            (None, 71, 71, 64)        18496     
_________________________________________________________________
max_pooling2d_2 (MaxPooling2 (None, 35, 35, 64)        0         
_________________________________________________________________
conv2d_3 (Conv2D)            (None, 33, 33, 64)        36928     
_________________________________________________________________
max_pooling2d_3 (MaxPooling2 (None, 16, 16, 64)        0         
_________________________________________________________________
conv2d_4 (Conv2D)            (None, 14, 14, 64)        36928     
_________________________________________________________________
max_pooling2d_4 (MaxPooling2 (None, 7, 7, 64)          0         
_________________________________________________________________
flatten (Flatten)            (None, 3136)              0         
_________________________________________________________________
dense (Dense)                (None, 512)               1606144   
_________________________________________________________________
dense_1 (Dense)              (None, 1)                 513       
=================================================================
Total params: 1,704,097
Trainable params: 1,704,097
Non-trainable params: 0
_________________________________________________________________
</code></pre><p>The “output shape” column shows how the size of your feature map evolves in each successive layer. The convolution layers reduce the size of the feature maps by a bit due to padding, and each pooling layer halves the dimensions.</p>
…
_crossentropy'</span>, metrics=[<span class="string">'accuracy'</span>])</span><br><span class="line">model.summary()</span><br><span class="line">model.fit(training_images, training_labels, epochs=<span class="number">5</span>)</span><br><span class="line">test_loss = model.evaluate(test_images, test_labels)</span><br></pre></td></tr></table></figure>
<pre><code>1.13.1
_________________________________________________________________
Layer (type)                 Output Shape              Param #   
=================================================================
conv2d (Conv2D)              (None, 26, 26, 64)        640       
_________________________________________________________________
max_pooling2d (MaxPooling2D) (None, 13, 13, 64)        0         
_________________________________________________________________
conv2d_1 (Conv2D)            (None, 11, 11, 64)        36928     
_________________________________________________________________
max_pooling2d_1 (MaxPooling2 (None, 5, 5, 64)          0         
_________________________________________________________________
flatten_1 (Flatten)          (None, 1600)              0         
_________________________________________________________________
dense_2 (Dense)              (None, 128)               204928    
_________________________________________________________________
dense_3 (Dense)              (None, 10)                1290      
=================================================================
Total params: 243,786
Trainable params: 243,786
Non-trainable params: 0
_________________________________________________________________
Epoch 1/5
60000/60000 [==============================] - 106s 2ms/sample - loss: 0.4447 - acc: 0.8383
Epoch 2/5
60000/60000 [==============================] - 104s 2ms/sample - loss: 0.3024 - acc: 0.8891
…
Let's print the model summary to keep track of the shapes.


<figure class="highlight python"><table><tr><td class="code"><pre><span class="line">model.summary()</span><br></pre></td></tr></table></figure>

<figure class="highlight plain"><table><tr><td class="code"><pre><span class="line"></span><br><span class="line">_________________________________________________________________</span><br><span class="line">Layer (type)                 Output Shape              Param #   </span><br><span class="line">=================================================================</span><br><span class="line">input_3 (InputLayer)         (None, 5511, 101)         0         </span><br><span class="line">_________________________________________________________________</span><br><span class="line">conv1d_3 (Conv1D)            (None, 1375, 196)         297136    </span><br><span class="line">_________________________________________________________________</span><br><span class="line">batch_normalization_2 (Batch (None, 1375, 196)         784       </span><br><span class="line">_________________________________________________________________</span><br><span class="line">activation_1 (Activation)    (None, 1375, 196)         0         </span><br><span class="line">_________________________________________________________________</span><br><span class="line">dropout_1 (Dropout)          (None, 1375, 196)         0         </span><br><span class="line">_________________________________________________________________</span><br><span class="line">gru_1 (GRU)                  (None, 1375, 128)         124800    </span><br><span class="line">_________________________________________________________________</span><br><span class="line">dropout_2 (Dropout)          (None, 1375, 128)         0         </span><br><span class="line">_________________________________________________________________</span><br><span class="line">batch_normalization_3 (Batch (None, 1375, 128)         512       </span><br><span class="line">_________________________________________________________________</span><br><span class="line">gru_2 (GRU)                  (None, 1375, 128)         98688     </span><br><span class="line">_________________________________________________________________</span><br><span class="line">dropout_3 (Dropout)          (None, 1375, 128)         0         </span><br><span class="line">_________________________________________________________________</span><br><span class="line">batch_normalization_4 (Batch (None, 1375, 128)         512       </span><br><span class="line">_________________________________________________________________</span><br><span class="line">dropout_4 (Dropout)          (None, 1375, 128)         0         </span><br><span class="line">_________________________________________________________________</span><br><span class="line">time_distributed_1 (TimeDist (None, 1375, 1)           129       </span><br><span class="line">=================================================================</span><br><span class="line">Total params: 522,561</span><br><span class="line">Trainable params: 521,657</span><br><span class="line">Non-trainable params: 904</span><br><span class="line">_________________________________________________________________</span><br></pre></td></tr></table></figure>
…
ize has 400,001 words (with valid indices from 0 to 400,000) there are 400,001*50 = 20,000,050 non-trainable parameters. </p>
<figure class="highlight python"><table><tr><td class="code"><pre><span class="line">model = Emojify_V2((maxLen,), word_to_vec_map, word_to_index)</span><br><span class="line">model.summary()</span><br></pre></td></tr></table></figure>
<pre><code>_________________________________________________________________
Layer (type)                 Output Shape              Param #   
=================================================================
input_8 (InputLayer)         (None, 10)                0         
_________________________________________________________________
embedding_12 (Embedding)     (None, 10, 50)            20000050  
_________________________________________________________________
lstm_7 (LSTM)                (None, 10, 128)           91648     
_________________________________________________________________
dropout_7 (Dropout)          (None, 10, 128)           0         
_________________________________________________________________
lstm_8 (LSTM)                (None, 128)               131584    
_________________________________________________________________
dropout_8 (Dropout)          (None, 128)               0         
_________________________________________________________________
dense_4 (Dense)              (None, 5)                 645       
_________________________________________________________________
activation_2 (Activation)    (None, 5)                 0         
=================================================================
Total params: 20,223,927
Trainable params: 223,877
Non-trainable params: 20,000,050
_________________________________________________________________
</code></pre><p>As usual, after creating your model in Keras, you need to compile it and define what loss, optimizer and metrics your are want to use. Compile your model using <code>categorical_crossentropy</code> loss, <code>adam</code> optimizer and <code>[&#39;accuracy&#39;]</code> metrics:</p>
…
<li><p><a href="https://arxiv.org/abs/1612.08242" target="_blank" rel="noopener">YOLO9000 Better, faster, stronger</a></p>
<ul>
<li><p>Summary:</p>
</li>
<li><figure class="highlight plain"><table><tr><td class="code"><pre><span class="line">________________________________________________________________________________________</span><br><span class="line">Layer (type)                     Output Shape          Param #     Connected to                </span><br><span class="line">========================================================================================</span><br><span class="line">input_1 (InputLayer)             (None, 608, 608, 3)   0                                 </span><br><span class="line">________________________________________________________________________________________</span><br><span class="line">conv2d_1 (Conv2D)                (None, 608, 608, 32)  864         input_1[0][0]         </span><br><span class="line">________________________________________________________________________________________</span><br><span class="line">batch_normalization_1 (BatchNorm (None, 608, 608, 32)  128         conv2d_1[0][0]       </span><br><span class="line">________________________________________________________________________________________</span><br><span class="line">leaky_re_lu_1 (LeakyReLU)        (None, 608, 608, 32)  0     batch_normalization_1[0][0] </span><br><span class="line">________________________________________________________________________________________</span><br><span class="line">max_pooling2d_1 (MaxPooling2D)   (None, 304, 304, 32)  0           leaky_re_lu_1[0][0]   </span><br><span class="line">________________________________________________________________________________________</span><br><span class="line">conv2d_2 (Conv2D)                (None, 304, 304, 64)  18432       max_pooling2d_1[0][0] </span><br><span class="line">________________________________________________________________________________________</span><br><span class="line">batch_normalization_2 (BatchNorm (None, 304, 304, 64)  256         conv2d_2[0][0]       </span><br><span class="line">________________________________________________________________________________________</span><br><span class="line">leaky_re_lu_2 (LeakyReLU)        (None, 304, 304, 64)  0     batch_normalization_2[0][0] </span><br><span class="line">_______________________________________________________________________________________</span><br><span class="line">max_pooling2d_2 (MaxPooling2D)   (None, 152, 152, 64)  0           leaky_re_lu_2[0][0]   </span><br><span class="line">________________________________________________________________________________________</span><br><span class="line">conv2d_3 (Conv2D)                (None, 152, 152, 128) 73728       max_pooling2d_2[0][0] </span><br><span class="line">________________________________________________________________________________________</span><br><span class="line">batch_normalization_3 (BatchNorm (None, 152, 152, 128) 512         conv2d_3[0][0]       </span><br><span class="line">________________________________________________________________________________________</span><br><span class="line">leaky_re_lu_3 (LeakyReLU)        (None, 152, 152, 128) 0     batch_normalization_3[0][0] </span><br><span class="line">________________________________________________________________________________________</span><br><span class="line">conv2d_4 (Conv2D)                (None, 152, 152, 64)  8192        leaky_re_lu_3[0][0]   </span><br><span class="line">________________________________________________________________________________________</span><br><span class="line">batch_normalization_4 (BatchNorm (None, 152, 152, 64)  256         conv2d_4[0][0]       </span><br><span class="line">________________________________________________________________________________________</span><br><span class="line">leaky_re_lu_4 (LeakyReLU)        (None, 152, 152, 64)  0     batch_normalization_4[0][0] </span><br><span class="line">________________________________________________________________________________________</span><br><span class="line">conv2d_5 (Conv2D)                (None, 152, 152, 128) 73728       leaky_re_lu_4[0][0]   </span><br><span class="line">________________________________________________________________________________________</span><br><span class="line">batch_normalization_5 (BatchNorm (None, 152, 152, 128) 512         conv2d_5[0][0]       </span><br><span class="line">________________________________________________________________________________________</span><br><span class="line">leaky_re_lu_5 (LeakyReLU)        (None, 152, 152, 128) 0     batch_normalization_5[0][0] </span><br><span class="line">________________________________________________________________________________________</span><br><span class="line">max_pooling2d_3 (MaxPooling2D)   (None, 76, 76, 128)   0           leaky_re_lu_5[0][0]   </span><br><span class="line">________________________________________________________________________________________</span><br><span class="line">conv2d_6 (Conv2D)                (None, 76, 76, 256)   294912      max_pooling2d_3[0][0] </span><br><span class="line">_______________________________________________________________________________________</span><br><span class="line">batch_normalization_6 (BatchNorm (None, 76, 76, 256)   1024        conv2d_6[0][0]       </span><br><span class="line">________________________________________________________________________________________</span><br><span class="line">leaky_re_lu_6 (LeakyReLU)        (None, 76, 76, 256)   0     batch_normalization_6[0][0] </span><br><span class="line">_______________________________________________________________________________________</span><br><span class="line">conv2d_7 (Conv2D)                (None, 76, 76, 128)   32768       leaky_re_lu_6[0][0]   </span><br><span class="line">________________________________________________________________________________________</span><br><span class="line">batch_normalization_7 (BatchNorm (None, 76, 76, 128)   512         conv2d_7[0][0]       </span><br><span class="line">_______________________________________________________________________________________</span><br><span class="line">leaky_re_lu_7 (LeakyReLU)        (None, 76, 76, 128)   0     batch_normalization_7[0][0] </span><br><span class="line">________________________________________________________________________________________</span><br><span class="line">conv2d_8 (Conv2D)                (None, 76, 76, 256)   294912      leaky_re_lu_7[0][0]   </span><br><span class="line">________________________________________________________________________________________</span><br><span class="line">batch_normalization_8 (BatchNorm (None, 76, 76, 256)   1024        conv2d_8[0][0]       </span><br><span class="line">________________________________________________________________________________________</span><br><span class="line">leaky_re_lu_8 (LeakyReLU)        (None, 76, 76, 256)   0     batch_normalization_8[0][0] </span><br><span class="line">________________________________________________________________________________________</span><br><span class="line">max_pooling2d_4 (MaxPooling2D)   (None, 38, 38, 256)   0           leaky_re_lu_8[0][0]   </span><br><span class="line">________________________________________________________________________________________</span><br><span class="line">conv2d_9 (Conv2D)                (None, 38, 38, 512)   1179648     max_pooling2d_4[0][0] </span><br><span class="line">________________________________________________________________________________________</span><br><span class="line">batch_normalization_9 (BatchNorm (None, 38, 38, 512)   2048        conv2d_9[0][0]       </span><br><span class="line">________________________________________________________________________________________</span><br><span class="line">leaky_re_lu_9 (LeakyReLU)        (None, 38, 38, 512)   0     batch_normalization_9[0][0] </span><br><span class="line">________________________________________________________________________________________</span><br><span class="line">conv2d_10 (Conv2D)               (None, 38, 38, 256)   131072      leaky_re_lu_9[0][0]   </span><br><span class="line">________________________________________________________________________________________</span><br><span class="line">batch_normalization_10 (BatchNor (None, 38, 38, 256)   1024        conv2d_10[0][0]       </span><br><span class="line">________________________________________________________________________________________</span><br><span class="line">leaky_re_lu_10 (LeakyReLU)       (None, 38, 38, 256)   0    batch_normalization_10[0][0]</span><br><span class="line">________________________________________________________________________________________</span><br><span class="line">conv2d_11 (Conv2D)               (None, 38, 38, 512)   1179648    leaky_re_lu_10[0][0]   </span><br><span class="line">________________________________________________________________________________________</span><br><span class="line">batch_normalization_11 (BatchNor (None, 38, 38, 512)   2048        conv2d_11[0][0]       </span><br><span class="line">________________________________________________________________________________________</span><br><span class="line">leaky_re_lu_11 (LeakyReLU)       (None, 38, 38, 512)   0    batch_normalization_11[0][0]</span><br><span class="line">_______________________________________________________________________________________</span><br><span class="line">conv2d_12 (Conv2D)               (None, 38, 38, 256)   131072      leaky_re_lu_11[0][0] </span><br><span class="line">________________________________________________________________________________________</span><br><span class="line">batch_normalization_12 (BatchNor (None, 38, 38, 256)   1024        conv2d_12[0][0]       </span><br><span class="line">________________________________________________________________________________________</span><br><span class="line">leaky_re_lu_12 (LeakyReLU)       (None, 38, 38, 256)   0   batch_normalization_12[0][0]</span><br><span class="line">________________________________________________________________________________________</span><br><span class="line">conv2d_13 (Conv2D)               (None, 38, 38, 512)   1179648     leaky_re_lu_12[0][0] </span><br><span class="line">________________________________________________________________________________________</span><br><span class="line">batch_normalization_13 (BatchNor (None, 38, 38, 512)   2048        conv2d_13[0][0]       </span><br><span class="line">________________________________________________________________________________________</span><br><span class="line">leaky_re_lu_13 (LeakyReLU)       (None, 38, 38, 512)   0    batch_normalization_13[0][0]</span><br><span class="line">________________________________________________________________________________________</span><br><span class="line">max_pooling2d_5 (MaxPooling2D)   (None, 19, 19, 512)   0           leaky_re_lu_13[0][0] </span><br><span class="line">_______________________________________________________________________________________</span><br><span class="line">conv2d_14 (Conv2D)               (None, 19, 19, 1024)  4718592     max_pooling2d_5[0][0] </span><br><span class="line">________________________________________________________________________________________</span><br><span class="line">batch_normalization_14 (BatchNor (None, 19, 19, 1024)  4096        conv2d_14[0][0]       </span><br><span class="line">________________________________________________________________________________________</span><br><span class="line">leaky_re_lu_14 (LeakyReLU)       (None, 19, 19, 1024)  0    batch_normalization_14[0][0]</span><br><span class="line">________________________________________________________________________________________</span><br><span class="line">conv2d_15 (Conv2D)               (None, 19, 19, 512)   524288      leaky_re_lu_14[0][0] </span><br><span class="line">________________________________________________________________________________________</span><br><span class="line">batch_normalization_15 (BatchNor (None, 19, 19, 512)   2048        conv2d_15[0][0]       </span><br><span class="line">________________________________________________________________________________________</span><br><span class="line">leaky_re_lu_15 (LeakyReLU)       (None, 19, 19, 512)   0    batch_normalization_15[0][0]</span><br><span class="line">________________________________________________________________________________________</span><br><span class="line">conv2d_16 (Conv2D)               (None, 19, 19, 1024)  4718592     leaky_re_lu_15[0][0] </span><br><span class="line">________________________________________________________________________________________</span><br><span class="line">batch_normalization_16 (BatchNor (None, 19, 19, 1024)  4096        conv2d_16[0][0]       </span><br><span class="line">________________________________________________________________________________________</span><br><span class="line">leaky_re_lu_16 (LeakyReLU)       (None, 19, 19, 1024)  0    batch_normalization_16[0][0]</span><br><span class="line">________________________________________________________________________________________</span><br><span class="line">conv2d_17 (Conv2D)               (None, 19, 19, 512)   524288      leaky_re_lu_16[0][0] </span><br><span class="line">________________________________________________________________________________________</span><br><span class="line">batch_normalization_17 (BatchNor (None, 19, 19, 512)   2048        conv2d_17[0][0]       </span><br><span class="line">________________________________________________________________________________________</span><br><span class="line">leaky_re_lu_17 (LeakyReLU)       (None, 19, 19, 512)   0    batch_normalization_17[0][0]</span><br><span class="line">_______________________________________________________________________________________</span><br><span class="line">conv2d_18 (Conv2D)               (None, 19, 19, 1024)  4718592     leaky_re_lu_17[0][0] </span><br><span class="line">________________________________________________________________________________________</span><br><span class="line">batch_normalization_18 (BatchNor (None, 19, 19, 1024)  4096        conv2d_18[0][0]       </span><br><span class="line">________________________________________________________________________________________</span><br><span class="line">leaky_re_lu_18 (LeakyReLU)       (None, 19, 19, 1024)  0    batch_normalization_18[0][0]</span><br><span class="line">________________________________________________________________________________________</span><br><span class="line">conv2d_19 (Conv2D)               (None, 19, 19, 1024)  9437184     leaky_re_lu_18[0][0] </span><br><span class="line">________________________________________________________________________________________</span><br><span class="line">batch_normalization_19 (BatchNor (None, 19, 19, 1024)  4096        conv2d_19[0][0]       </span><br><span class="line">________________________________________________________________________________________</span><br><span class="line">conv2d_21 (Conv2D)               (None, 38, 38, 64)    32768       leaky_re_lu_13[0][0]</span><br><span class="line">________________________________________________________________________________________</span><br><span class="line">leaky_re_lu_19 (LeakyReLU)       (None, 19, 19, 1024)  0    batch_normalization_19[0][0]</span><br><span class="line">________________________________________________________________________________________</span><br><span class="line">batch_normalization_21 (BatchNor (None, 38, 38, 64)    256         conv2d_21[0][0]       </span><br><span class="line">________________________________________________________________________________________</span><br><span class="line">conv2d_20 (Conv2D)               (None, 19, 19, 1024)  9437184     leaky_re_lu_19[0][0]</span><br><span class="line">________________________________________________________________________________________</span><br><span class="line">leaky_re_lu_21 (LeakyReLU)       (None, 38, 38, 64)    0    batch_normalization_21[0][0]</span><br><span class="line">________________________________________________________________________________________</span><br><span class="line">batch_normalization_20 (BatchNor (None, 19, 19, 1024)  4096        conv2d_20[0][0]       </span><br><span class="line">________________________________________________________________________________________</span><br><span class="line">space_to_depth_x2 (Lambda)       (None, 19, 19, 256)   0           leaky_re_lu_21[0][0] </span><br><span class="line">________________________________________________________________________________________</span><br><span class="line">leaky_re_lu_20 (LeakyReLU)       (None, 19, 19, 1024)  0    batch_normalization_20[0][0]</span><br><span class="line">________________________________________________________________________________________</span><br><span class="line">concatenate_1 (Concatenate)      (None, 19, 19, 1280)  0         space_to_depth_x2[0][0] </span><br><span class="line">                                                                  leaky_re_lu_20[0][0] </span><br><span class="line">________________________________________________________________________________________</span><br><span class="line">conv2d_22 (Conv2D)               (None, 19, 19, 1024)  11796480    concatenate_1[0][0]   </span><br><span class="line">________________________________________________________________________________________</span><br><span class="line">batch_normalization_22 (BatchNor (None, 19, 19, 1024)  4096        conv2d_22[0][0]       </span><br><span class="line">________________________________________________________________________________________</span><br><span class="line">leaky_re_lu_22 (LeakyReLU)       (None, 19, 19, 1024)  0    batch_normalization_22[0][0]</span><br><span class="line">________________________________________________________________________________________</span><br><span class="line">conv2d_23 (Conv2D)               (None, 19, 19, 425)   435625      leaky_re_lu_22[0][0] </span><br><span class="line">===============================================================================================</span><br><span class="line">Total params: 50,983,561</span><br><span class="line">Trainable params: 50,962,889</span><br><span class="line">Non-trainable params: 20,672</span><br><span class="line">_______________________________________________________________________________________________</span><br></pre></td></tr></table></figure>
…
