…
the sequences) X = Dropout(0.8)(X) # dropout (use 0.8) X = BatchNormalization()(X) # Batch normalization X = Dropout(0.8)(X) # dropout (use 0.8) # Step 4: Time-distributed dense layer (≈1 line) X = TimeDistributed(Dense(1, activation = "sigmoid"))(X) # time distributed (sigmoid) ### END CODE HERE ### model = Model(inputs = X_input, outputs = X) return model 1model = model(input_shape = (Tx, n_freq)) Let's print the model summary to keep track of the shapes. 1model.summary() Layer (type) Output Shape Param # ================================================================= input_3 (InputLayer) (None, 5511, 101) 0 _________________________________________________________________ conv1d_3 (Conv1D) (None, 1375, 196) 297136 _________________________________________________________________ batch_normalization_2 (Batch (None, 1375, 196) 784 _________________________________________________________________ activation_1 (Activation) (None, 1375, 196) 0 _________________________________________________________________ dropout_1 (Dropout) (None, 1375, 196) 0 _________________________________________________________________ gru_1 (GRU) (None, 1375, 128) 124800 _________________________________________________________________ dropout_2 (Dropout) (None, 1375, 128) 0 _________________________________________________________________ batch_normalization_3 (Batch (None, 1375, 128) 512 _________________________________________________________________ gru_2 (GRU) (None, 1375, 128) 98688 _________________________________________________________________ dropout_3 (Dropout) (None, 1375, 128) 0 _________________________________________________________________ batch_normalization_4 (Batch (None, 1375, 128) 512 _________________________________________________________________ dropout_4 (Dropout) (None, 1375, 128) 0 _________________________________________________________________ time_distributed_1 (TimeDist (None, 1375, 1) 129 ================================================================= Total params: 522,561 Trainable params: 521,657 Non-trainable params: 904 _________________________________________________________________ Expected Output: Total params 522,561 Trainable params 521,657 Non-trainable params 904 The output of the network is of shape (None, 1375, 1) while the input is (None, 5511, 101). The Conv1D ha
…
ts and returning the list of outputs. (≈ 1 line) model = Model([X, s0, c0], outputs) ### END CODE HERE ### return model Run the following cell to create your model. 1model = model(Tx, Ty, n_a, n_s, len(human_vocab), len(machine_vocab)) Let's get a summary of the model to check if it matches the expected output. 1model.summary() ____________________________________________________________________________________________________ Layer (type) Output Shape Param # Connected to ==================================================================================================== input_2 (InputLayer) (None, 30, 37) 0 ____________________________________________________________________________________________________ s0 (InputLayer) (None, 64) 0 ____________________________________________________________________________________________________ bidirectional_2 (Bidirectional) (None, 30, 64) 17920 input_2[0][0] ____________________________________________________________________________________________________ repeat_vector_2 (RepeatVector) (None, 30, 64) 0 s0[0][0] lstm_2[0][0] lstm_2[1][0] lstm_2[2][0] lstm_2[3][0] lstm_2[4][0] lstm_2[5][0] lstm_2[6][0] lstm_2[7][0] lstm_2[8][0] ____________________________________________________________________________________________________ concatenate_2 (Concatenate) (None, 30, 128) 0 bidirectional_2[0][0] repeat_vector_2[0][0] bidirectional_2[0][0] repeat_vector_2[1][0] bidirectional_2[0][0] repeat_vector_2[2][0] bidirectional_2[0][0] repeat_vector_2[3][0] bidirectional_2[0][0] repeat_vector_2[4][0] bidirectional_2[0][0] repeat_vector_2[5][0] bidirectional_2[0][0] repeat_vector_2[6][0] bidirectional_2[0][0] repeat_vector_2[7][0] bidirectional_2[0][0] repeat_vector_2[8][0] bidirectional_2[0][0] repeat_vector_2[9][0] ____________________________________________________________________________________________________ dense_4 (Dense) (None, 30, 10) 1290 concatenate_2[0][0] concatenate_2[1][0] concatenate_2[2][0] concatenate_2[3][0] concatenate_2[4][0] concatenate_2[5][0] concatenate_2[6][0] concatenate_2[7][0] concatenate_2[8][0] concatenate_2[9][0] ____________________________________________________________________________________________________ dense_5 (Dense) (None, 30, 1) 11 dense_4[0][0] dense_4[1][0] dense_4[2][0] dense_4[3][0] dense_4[4][0] dense_4[5][0] dense_4[6][0] dense_4[7][0] dense_4[8][0] dense_4[9][0] ____________________________________________________________________________________________________ attention_weights (Activation) (None, 30, 1) 0 dense_5[0][0] dense_5[1][0] dense_5[2][0] dense_5[3][0] dense_5[4][0] dense_5[5][0] dense_5[6][0] dense_5[7][0] dense_5[8][0] dense_5[9][0] ____________________________________________________________________________________________________ dot_2 (Dot) (None, 1, 64) 0 attention_weights[0][0] bidirectional_2[0][0] attention_weights[1][0] bidirectional_2[0][0] attention_weights[2][0] bidirectional_2[0][0] attention_weights[3][0] bidirectional_2[0][0] attention_weights[4][0] bidirectional_2[0][0] attention_weights[5][0] bidirectional_2[0][0] attention_weights[6][0] bidirectional_2[0][0] attention_weights[7][0] bidirectional_2[0][0] attention_weights[8][0] bidirectional_2[0][0] attention_weights[9][0] bidirectional_2[0][0] ____________________________________________________________________________________________________ c0 (InputLayer) (None, 64) 0 ____________________________________________________________________________________________________ lstm_2 (LSTM) [(None, 64), (None, 6 33024 dot_2[0][0] s0[0][0] c0[0][0] dot_2[1][0] lstm_2[0][0] lstm_2[0][2] dot_2[2][0] lstm_2[1][0] lstm_2[1][2] dot_2[3][0] lstm_2[2][0] lstm_2[2][2] dot_2[4][0] lstm_2[3][0] lstm_2[3][2] dot_2[5][0] lstm_2[4][0] lstm_2[4][2] dot_2[6][0] lstm_2[5][0] lstm_2[5][2] dot_2[7][0] lstm_2[6][0] lstm_2[6][2] dot_2[8][0] lstm_2[7][0] lstm_2[7][2] dot_2[9][0] lstm_2[8][0] lstm_2[8][2] ____________________________________________________________________________________________________ dense_6 (Dense) (None, 11) 715 lstm_2[0][0] lstm_2[1][0] lstm_2[2][0] lstm_2[3][0] lstm_2[4][0] lstm_2[5][0] lstm_2[6][0] lstm_2[7][0] lstm_2[8][0] lstm_2[9][0] ==================================================================================================== Total params: 52,960 Trainable params: 52,960 Non-trainable params: 0 __________________________________________________________________________________________________
…
ts summary. Because all sentences in the dataset are less than 10 words, we chose max_len = 10. You should see your architecture, it uses "20,223,927" parameters, of which 20,000,050 (the word embeddings) are non-trainable, and the remaining 223,877 are. Because our vocabulary size has 400,001 words (with valid indices from 0 to 400,000) there are 400,001*50 = 20,000,050 non-trainable parameters. 12model = Emojify_V2((maxLen,), word_to_vec_map, word_to_index)model.summary() Layer (type) Output Shape Param # ================================================================= input_8 (InputLayer) (None, 10) 0 _________________________________________________________________ embedding_12 (Embedding) (None, 10, 50) 20000050 _________________________________________________________________ lstm_7 (LSTM) (None, 10, 128) 91648 _________________________________________________________________ dropout_7 (Dropout) (None, 10, 128) 0 _________________________________________________________________ lstm_8 (LSTM) (None, 128) 131584 _________________________________________________________________ dropout_8 (Dropout) (None, 128) 0 _________________________________________________________________ dense_4 (Dense) (None, 5) 645 _________________________________________________________________ activation_2 (Activation) (None, 5) 0 ================================================================= Total params: 20,223,927 Trainable params: 223,877 Non-trainable params: 20,000,050 _________________________________________________________________ As usual, after creating your model in Keras, you need to compile it and define what loss, optimizer and metrics your are want to use. Compile your model using categorical_crossentrop
…
ere are 3 classes. You could get something like that: Total number of generated boxes are grid_width * grid_height * no_of_anchors = 3 x 3 x 2 By removing the low probability predictions you should have: Then get the best probability followed by the IOU filtering: YOLO are not good at detecting smaller object. YOLO9000 Better, faster, stronger Summary: …________________________________________________________________________________________Layer (type) Output Shape Param # Connected to ========================================================================================input_1 (InputLayer) (None, 608, 608, 3) 0 ________________________________________________________________________________________conv2d_1 (Conv2D) (None, 608, 608, 32) 864 input_1[0][0] ________________________________________________________________________________________batch_normalization_1 (BatchNorm (None, 608, 608, 32) 128 conv2d_1[0][0] ________________________________________________________________________________________leaky_re_lu_1 (LeakyReLU) (None, 608, 608, 32) 0 batch_normalization_1[0][0] ________________________________________________________________________________________max_pooling2d_1 (MaxPooling2D) (None, 304, 304, 32) 0 leaky_re_lu_1[0][0] ________________________________________________________________________________________conv2d_2 (Conv2D) (None, 304, 304, 64) 18432 max_pooling2d_1[0][0] ________________________________________________________________________________________batch_normalization_2 (BatchNorm (None, 304, 304, 64) 256 conv2d_2[0][0] ________________________________________________________________________________________leaky_re_lu_2 (LeakyReLU) (None, 304, 304, 64) 0 batch_normalization_2[0][0] _______________________________________________________________________________________max_pooling2d_2 (MaxPooling2D) (None, 152, 152, 64) 0 leaky_re_lu_2[0][0] ________________________________________________________________________________________conv2d_3 (Conv2D) (None, 152, 152, 128) 73728 max_pooling2d_2[0][0] ________________________________________________________________________________________batch_normalization_3 (BatchNorm (None, 152, 152, 128) 512 conv2d_3[0][0] ________________________________________________________________________________________leaky_re_lu_3 (LeakyReLU) (None, 152, 152, 128) 0 batch_normalization_3[0][0] ________________________________________________________________________________________conv2d_4 (Conv2D) (None, 152, 152, 64) 8192 leaky_re_lu_3[0][0] ________________________________________________________________________________________batch_normalization_4 (BatchNorm (None, 152, 152, 64) 256 conv2d_4[0][0] ________________________________________________________________________________________leaky_re_lu_4 (LeakyReLU) (None, 152, 152, 64) 0 batch_normalization_4[0][0] ________________________________________________________________________________________conv2d_5 (Conv2D) (None, 152, 152, 128) 73728 leaky_re_lu_4[0][0] ________________________________________________________________________________________batch_normalization_5 (BatchNorm (None, 152, 152, 128) 512 conv2d_5[0][0] ________________________________________________________________________________________leaky_re_lu_5 (LeakyReLU) (None, 152, 152, 128) 0 batch_normalization_5[0][0] ________________________________________________________________________________________max_pooling2d_3 (MaxPooling2D) (None, 76, 76, 128) 0 leaky_re_lu_5[0][0] ________________________________________________________________________________________conv2d_6 (Conv2D) (None, 76, 76, 256) 294912 max_pooling2d_3[0][0] _______________________________________________________________________________________batch_normalization_6 (BatchNorm (None, 76, 76, 256) 1024 conv2d_6[0][0] ________________________________________________________________________________________leaky_re_lu_6 (LeakyReLU) (None, 76, 76, 256) 0 batch_normalization_6[0][0] _______________________________________________________________________________________conv2d_7 (Conv2D) (None, 76, 76, 128) 32768 leaky_re_lu_6[0][0] ________________________________________________________________________________________batch_normalization_7 (BatchNorm (None, 76, 76, 128) 512 conv2d_7[0][0] _______________________________________________________________________________________leaky_re_lu_7 (LeakyReLU) (None, 76, 76, 128) 0 batch_normalization_7[0][0] ________________________________________________________________________________________conv2d_8 (Conv2D) (None, 76, 76, 256) 294912 leaky_re_lu_7[0][0] ________________________________________________________________________________________batch_normalization_8 (BatchNorm (None, 76, 76, 256) 1024 conv2d_8[0][0] ________________________________________________________________________________________leaky_re_lu_8 (LeakyReLU) (None, 76, 76, 256) 0 batch_normalization_8[0][0] ________________________________________________________________________________________max_pooling2d_4 (MaxPooling2D) (None, 38, 38, 256) 0 leaky_re_lu_8[0][0] ________________________________________________________________________________________conv2d_9 (Conv2D) (None, 38, 38, 512) 1179648 max_pooling2d_4[0][0] ________________________________________________________________________________________batch_normalization_9 (BatchNorm (None, 38, 38, 512) 2048 conv2d_9[0][0] ________________________________________________________________________________________leaky_re_lu_9 (LeakyReLU) (None, 38, 38, 512) 0 batch_normalization_9[0][0] ________________________________________________________________________________________conv2d_10 (Conv2D) (None, 38, 38, 256) 131072 leaky_re_lu_9[0][0] ________________________________________________________________________________________batch_normalization_10 (BatchNor (None, 38, 38, 256) 1024 conv2d_10[0][0] ________________________________________________________________________________________leaky_re_lu_10 (LeakyReLU) (None, 38, 38, 256) 0 batch_normalization_10[0][0]________________________________________________________________________________________conv2d_11 (Conv2D) (None, 38, 38, 512) 1179648 leaky_re_lu_10[0][0] ________________________________________________________________________________________batch_normalization_11 (BatchNor (None, 38, 38, 512) 2048 conv2d_11[0][0] ________________________________________________________________________________________leaky_re_lu_11 (LeakyReLU) (None, 38, 38, 512) 0 batch_normalization_11[0][0]_______________________________________________________________________________________conv2d_12 (Conv2D) (None, 38, 38, 256) 131072 leaky_re_lu_11[0][0] ________________________________________________________________________________________batch_normalization_12 (BatchNor (None, 38, 38, 256) 1024 conv2d_12[0][0] ________________________________________________________________________________________leaky_re_lu_12 (LeakyReLU) (None, 38, 38, 256) 0 batch_normalization_12[0][0]________________________________________________________________________________________conv2d_13 (Conv2D) (None, 38, 38, 512) 1179648 leaky_re_lu_12[0][0] ________________________________________________________________________________________batch_normalization_13 (BatchNor (None, 38, 38, 512) 2048 conv2d_13[0][0] ________________________________________________________________________________________leaky_re_lu_13 (LeakyReLU) (None, 38, 38, 512) 0 batch_normalization_13[0][0]________________________________________________________________________________________max_pooling2d_5 (MaxPooling2D) (None, 19, 19, 512) 0 leaky_re_lu_13[0][0] _______________________________________________________________________________________conv2d_14 (Conv2D) (None, 19, 19, 1024) 4718592 max_pooling2d_5[0][0] ________________________________________________________________________________________batch_normalization_14 (BatchNor (None, 19, 19, 1024) 4096 conv2d_14[0][0] ________________________________________________________________________________________leaky_re_lu_14 (LeakyReLU) (None, 19, 19, 1024) 0 batch_normalization_14[0][0]________________________________________________________________________________________conv2d_15 (Conv2D) (None, 19, 19, 512) 524288 leaky_re_lu_14[0][0] ________________________________________________________________________________________batch_normalization_15 (BatchNor (None, 19, 19, 512) 2048 conv2d_15[0][0] ________________________________________________________________________________________leaky_re_lu_15 (LeakyReLU) (None, 19, 19, 512) 0 batch_normalization_15[0][0]________________________________________________________________________________________conv2d_16 (Conv2D) (None, 19, 19, 1024) 4718592 leaky_re_lu_15[0][0] ________________________________________________________________________________________batch_normalization_16 (BatchNor (None, 19, 19, 1024) 4096 conv2d_16[0][0] ________________________________________________________________________________________leaky_re_lu_16 (LeakyReLU) (None, 19, 19, 1024) 0 batch_normalization_16[0][0]________________________________________________________________________________________conv2d_17 (Conv2D) (None, 19, 19, 512) 524288 leaky_re_lu_16[0][0] ________________________________________________________________________________________batch_normalization_17 (BatchNor (None, 19, 19, 512) 2048 conv2d_17[0][0] ________________________________________________________________________________________leaky_re_lu_17 (LeakyReLU) (None, 19, 19, 512) 0 batch_normalization_17[0][0]_______________________________________________________________________________________conv2d_18 (Conv2D) (None, 19, 19, 1024) 4718592 leaky_re_lu_17[0][0] ________________________________________________________________________________________batch_normalization_18 (BatchNor (None, 19, 19, 1024) 4096 conv2d_18[0][0] ________________________________________________________________________________________leaky_re_lu_18 (LeakyReLU) (None, 19, 19, 1024) 0 batch_normalization_18[0][0]________________________________________________________________________________________conv2d_19 (Conv2D) (None, 19, 19, 1024) 9437184 leaky_re_lu_18[0][0] ________________________________________________________________________________________batch_normalization_19 (BatchNor (None, 19, 19, 1024) 4096 conv2d_19[0][0] ________________________________________________________________________________________conv2d_21 (Conv2D) (None, 38, 38, 64) 32768 leaky_re_lu_13[0][0]________________________________________________________________________________________leaky_re_lu_19 (LeakyReLU) (None, 19, 19, 1024) 0 batch_normalization_19[0][0]________________________________________________________________________________________batch_normalization_21 (BatchNor (None, 38, 38, 64) 256 conv2d_21[0][0] ________________________________________________________________________________________conv2d_20 (Conv2D) (None, 19, 19, 1024) 9437184 leaky_re_lu_19[0][0]________________________________________________________________________________________leaky_re_lu_21 (LeakyReLU) (None, 38, 38, 64) 0 batch_normalization_21[0][0]________________________________________________________________________________________batch_normalization_20 (BatchNor (None, 19, 19, 1024) 4096 conv2d_20[0][0] ________________________________________________________________________________________space_to_depth_x2 (Lambda) (None, 19, 19, 256) 0 leaky_re_lu_21[0][0] ________________________________________________________________________________________leaky_re_lu_20 (LeakyReLU) (None, 19, 19, 1024) 0 batch_normalization_20[0][0]________________________________________________________________________________________concatenate_1 (Concatenate) (None, 19, 19, 1280) 0 space_to_depth_x2[0][0] leaky_re_lu_20[0][0] ________________________________________________________________________________________conv2d_22 (Conv2D) (None, 19, 19, 1024) 11796480 concatenate_1[0][0] ________________________________________________________________________________________batch_normalization_22 (BatchNor (None, 19, 19, 1024) 4096 conv2d_22[0][0] ________________________________________________________________________________________leaky_re_lu_22 (LeakyReLU) (None, 19, 19, 1024) 0 batch_normalization_22[0][0]________________________________________________________________________________________conv2d_23 (Conv2D) (None, 19, 19, 425) 435625 leaky_re_lu_22[0][0] ===============================================================================================Total params: 50,983,561Trainable params: 50,962,889Non-trainable params: 20,672_______________________________________________________________________________________________ You can find implementations for YOLO here: https://github.com/allanzelener/YAD2K https://github.com/thtrie
…
